…
tps://localhost:8080/"},"id":"xGecOX9c2Jbl","executionInfo":{"status":"ok","timestamp":1666935616001,"user_tz":-540,"elapsed":133,"user":{"displayName":"Seojoon Kang","userId":"03671467470939808326"}},"outputId":"fe3f452b-45e9-4043-b9f5-4158a33571ee"},"execution_count":null,"outputs":[{"output_type":"stream","name":"stdout","text":["Model: \"sequential\"\n","_________________________________________________________________\n"," Layer (type)                Output Shape              Param #   \n","=================================================================\n"," dense (Dense)               (None, 16384)             1638400   \n","                                                                 \n"," batch_normalization (BatchN  (None, 16384)            65536     \n"," ormalization)                                                   \n","                                                                 \n"," leaky_re_lu (LeakyReLU)     (None, 16384)             0         \n","                                                                 \n"," reshape (Reshape)           (None, 8, 8, 256)         0         \n","                                                                 \n"," conv2d_transpose (Conv2DTra  (None, 8, 8, 128)        819200    \n"," nspose)                                                         \n","                                                                 \n"," batch_normalization_1 (Batc  (None, 8, 8, 128)        512       \n"," hNormalization)                                                 \n","                                                                 \n"," leaky_re_lu_1 (LeakyReLU)   (None, 8, 8, 128)         0         \n","                                                                 \n"," conv2d_transpose_1 (Conv2DT  (None, 16, 16, 64)       204800    \n"," ranspose)                                                       \n","                                                                 \n"," batch_normalization_2 (Batc  (None, 16, 16, 64)       256       \n"," hNormalization)                                                 \n","                                                                 \n"," leaky_re_lu_2 (LeakyReLU)   (None, 16, 16, 64)        0         \n","                                                                 \n"," conv2d_transpose_2 (Conv2DT  (None, 32, 32, 3)        4800      \n"," ranspose)                                                       \n","                                                                 \n","=================================================================\n","Total params: 2,733,504\n","Trainable params: 2,700,352\n","Non-trainable params: 33,152\n","_________________________________________________________________\n"]}]},{"cell_type":
…
ps://localhost:8080/"},"id":"h5INsPBs5peF","executionInfo":{"status":"ok","timestamp":1666935623648,"user_tz":-540,"elapsed":68,"user":{"displayName":"Seojoon Kang","userId":"03671467470939808326"}},"outputId":"ff97d00b-ce72-4070-ea57-9bc6543c1a65"},"execution_count":null,"outputs":[{"output_type":"stream","name":"stdout","text":["Model: \"sequential_1\"\n","_________________________________________________________________\n"," Layer (type)                Output Shape              Param #   \n","=================================================================\n"," conv2d (Conv2D)             (None, 16, 16, 64)        4864      \n","                                                                 \n"," leaky_re_lu_3 (LeakyReLU)   (None, 16, 16, 64)        0         \n","                                                                 \n"," dropout (Dropout)           (None, 16, 16, 64)        0         \n","                                                                 \n"," conv2d_1 (Conv2D)           (None, 8, 8, 128)         204928    \n","                                                                 \n"," leaky_re_lu_4 (LeakyReLU)   (None, 8, 8, 128)         0         \n","                                                                 \n"," dropout_1 (Dropout)         (None, 8, 8, 128)         0         \n","                                                                 \n"," flatten (Flatten)           (None, 8192)              0         \n","                                                                 \n"," dense_1 (Dense)             (None, 1)                 8193      \n","                                                                 \n","=================================================================\n","Total params: 217,985\n","Trainable params: 217,985\n","Non-trainable params: 0\n","_________________________________________________________________\n"]}]},{"cell_type":"code","source":["decision = discriminator(generated_image, training=False)"],"
…
ps://localhost:8080/"},"id":"CvUweSXGO4xv","executionInfo":{"status":"ok","timestamp":1666938095616,"user_tz":-540,"elapsed":74,"user":{"displayName":"Seojoon Kang","userId":"03671467470939808326"}},"outputId":"1cb6ed3d-d296-4fab-a6d9-3cb51bbf2f03"},"execution_count":null,"outputs":[{"output_type":"stream","name":"stdout","text":["Model: \"sequential_2\"\n","_________________________________________________________________\n"," Layer (type)                Output Shape              Param #   \n","=================================================================\n"," dense_2 (Dense)             (None, 8192)              827392    \n","                                                                 \n"," batch_normalization_3 (Batc  (None, 8192)             32768     \n"," hNormalization)                                                 \n","                                                                 \n"," leaky_re_lu_5 (LeakyReLU)   (None, 8192)              0         \n","                                                                 \n"," reshape_1 (Reshape)         (None, 8, 8, 128)         0         \n","                                                                 \n"," conv2d_2 (Conv2D)           (None, 8, 8, 128)         262272    \n","                                                                 \n"," batch_normalization_4 (Batc  (None, 8, 8, 128)        512       \n"," hNormalization)                                                 \n","                                                                 \n"," leaky_re_lu_6 (LeakyReLU)   (None, 8, 8, 128)         0         \n","                                                                 \n"," conv2d_transpose_3 (Conv2DT  (None, 16, 16, 128)      262272    \n"," ranspose)                                                       \n","                                                                 \n"," batch_normalization_5 (Batc  (None, 16, 16, 128)      512       \n"," hNormalization)                                                 \n","                                                                 \n"," leaky_re_lu_7 (LeakyReLU)   (None, 16, 16, 128)       0         \n","                                                                 \n"," conv2d_3 (Conv2D)           (None, 16, 16, 128)       409728    \n","                                                                 \n"," batch_normalization_6 (Batc  (None, 16, 16, 128)      512       \n"," hNormalization)                                                 \n","                                                                 \n"," leaky_re_lu_8 (LeakyReLU)   (None, 16, 16, 128)       0         \n","                                                                 \n"," conv2d_transpose_4 (Conv2DT  (None, 32, 32, 128)      262272    \n"," ranspose)                                                       \n","                                                                 \n"," batch_normalization_7 (Batc  (None, 32, 32, 128)      512       \n"," hNormalization)                                                 \n","                                                                 \n"," leaky_re_lu_9 (LeakyReLU)   (None, 32, 32, 128)       0         \n","                                                                 \n"," conv2d_4 (Conv2D)           (None, 32, 32, 128)       409728    \n","                                                                 \n"," batch_normalization_8 (Batc  (None, 32, 32, 128)      512       \n"," hNormalization)                                                 \n","                                                                 \n"," leaky_re_lu_10 (LeakyReLU)  (None, 32, 32, 128)       0         \n","                                                                 \n"," conv2d_5 (Conv2D)           (None, 32, 32, 3)         9603      \n","                                                                 \n","=================================================================\n","Total params: 2,478,595\n","Trainable params: 2,460,931\n","Non-trainable params: 17,664\n","_________________________________________________________________\n"]}]},{"cell_type":"code","source":["# noise\n","noise = tf.random.normal([1, 100])\n","g
…
://localhost:8080/"},"id":"ZvGda0s2PJCZ","executionInfo":{"status":"ok","timestamp":1666938096610,"user_tz":-540,"elapsed":1001,"user":{"displayName":"Seojoon Kang","userId":"03671467470939808326"}},"outputId":"673c6543-1d06-42ae-8603-02c8019ba4ac"},"execution_count":null,"outputs":[{"output_type":"stream","name":"stdout","text":["Model: \"sequential_3\"\n","_________________________________________________________________\n"," Layer (type)                Output Shape              Param #   \n","=================================================================\n"," conv2d_6 (Conv2D)           (None, 32, 32, 128)       3584      \n","                                                                 \n"," batch_normalization_9 (Batc  (None, 32, 32, 128)      512       \n"," hNormalization)                                                 \n","                                                                 \n"," leaky_re_lu_11 (LeakyReLU)  (None, 32, 32, 128)       0         \n","                                                                 \n"," dropout_2 (Dropout)         (None, 32, 32, 128)       0         \n","                                                                 \n"," conv2d_7 (Conv2D)           (None, 16, 16, 128)       262272    \n","                                                                 \n"," batch_normalization_10 (Bat  (None, 16, 16, 128)      512       \n"," chNormalization)                                                \n","                                                                 \n"," leaky_re_lu_12 (LeakyReLU)  (None, 16, 16, 128)       0         \n","                                                                 \n"," dropout_3 (Dropout)         (None, 16, 16, 128)       0         \n","                                                                 \n"," conv2d_8 (Conv2D)           (None, 8, 8, 128)         262272    \n","                                                                 \n"," batch_normalization_11 (Bat  (None, 8, 8, 128)        512       \n"," chNormalization)                                                \n","                                                                 \n"," leaky_re_lu_13 (LeakyReLU)  (None, 8, 8, 128)         0         \n","                                                                 \n"," dropout_4 (Dropout)         (None, 8, 8, 128)         0         \n","                                                                 \n"," conv2d_9 (Conv2D)           (None, 4, 4, 128)         262272    \n","                                                                 \n"," batch_normalization_12 (Bat  (None, 4, 4, 128)        512       \n"," chNormalization)                                                \n","                                                                 \n"," leaky_re_lu_14 (LeakyReLU)  (None, 4, 4, 128)         0         \n","                                                                 \n"," dropout_5 (Dropout)         (None, 4, 4, 128)         0         \n","                                                                 \n"," flatten_1 (Flatten)         (None, 2048)              0         \n","                                                                 \n"," dense_3 (Dense)             (None, 512)               1049088   \n","                                                                 \n"," dense_4 (Dense)             (None, 1)                 513       \n","                                                                 \n","=================================================================\n","Total params: 1,842,049\n","Trainable params: 1,841,025\n","Non-trainable params: 1,024\n","_________________________________________________________________\n"]}]},{"cell_type":"code","source":["generator_optimizer = tf.keras.optimizers.Adam(learn
…
s://localhost:8080/"},"id":"QwedX_-qifnf","executionInfo":{"status":"ok","timestamp":1666959770070,"user_tz":-540,"elapsed":53,"user":{"displayName":"Seojoon Kang","userId":"03671467470939808326"}},"outputId":"a91e118d-698a-45f7-d8b5-a510998fa6ba"},"execution_count":null,"outputs":[{"output_type":"stream","name":"stdout","text":["Model: \"sequential_10\"\n","_________________________________________________________________\n"," Layer (type)                Output Shape              Param #   \n","=================================================================\n"," dense_14 (Dense)            (None, 16384)             1638400   \n","                                                                 \n"," batch_normalization_43 (Bat  (None, 16384)            65536     \n"," chNormalization)                                                \n","                                                                 \n"," leaky_re_lu_45 (LeakyReLU)  (None, 16384)             0         \n","                                                                 \n"," reshape_5 (Reshape)         (None, 8, 8, 256)         0         \n","                                                                 \n"," conv2d_transpose_11 (Conv2D  (None, 8, 8, 512)        2097152   \n"," Transpose)                                                      \n","                                                                 \n"," batch_normalization_44 (Bat  (None, 8, 8, 512)        2048      \n"," chNormalization)                                                \n","                                                                 \n"," leaky_re_lu_46 (LeakyReLU)  (None, 8, 8, 512)         0         \n","                                                                 \n"," conv2d_transpose_12 (Conv2D  (None, 16, 16, 256)      2097152   \n"," Transpose)                                                      \n","                                                                 \n"," batch_normalization_45 (Bat  (None, 16, 16, 256)      1024      \n"," chNormalization)                                                \n","                                                                 \n"," leaky_re_lu_47 (LeakyReLU)  (None, 16, 16, 256)       0         \n","                                                                 \n"," conv2d_transpose_13 (Conv2D  (None, 32, 32, 128)      524288    \n"," Transpose)                                                      \n","                                                                 \n"," batch_normalization_46 (Bat  (None, 32, 32, 128)      512       \n"," chNormalization)                                                \n","                                                                 \n"," leaky_re_lu_48 (LeakyReLU)  (None, 32, 32, 128)       0         \n","                                                                 \n"," conv2d_transpose_14 (Conv2D  (None, 64, 64, 64)       131072    \n"," Transpose)                                                      \n","                                                                 \n"," batch_normalization_47 (Bat  (None, 64, 64, 64)       256       \n"," chNormalization)                                                \n","                                                                 \n"," leaky_re_lu_49 (LeakyReLU)  (None, 64, 64, 64)        0         \n","                                                                 \n"," conv2d_34 (Conv2D)          (None, 32, 32, 3)         3072      \n","                                                                 \n","=================================================================\n","Total params: 6,560,512\n","Trainable params: 6,525,824\n","Non-trainable params: 34,688\n","_________________________________________________________________\n"]}]},{"cell_type":"code","source":["noise = tf.random.normal([1, 100])\n","generated_ima
…
s://localhost:8080/"},"id":"r-rSG73Eik-b","executionInfo":{"status":"ok","timestamp":1666959770754,"user_tz":-540,"elapsed":66,"user":{"displayName":"Seojoon Kang","userId":"03671467470939808326"}},"outputId":"95977fb2-392f-4172-da0e-a02e7b2aeaa7"},"execution_count":null,"outputs":[{"output_type":"stream","name":"stdout","text":["Model: \"sequential_11\"\n","_________________________________________________________________\n"," Layer (type)                Output Shape              Param #   \n","=================================================================\n"," conv2d_35 (Conv2D)          (None, 32, 32, 64)        1792      \n","                                                                 \n"," leaky_re_lu_50 (LeakyReLU)  (None, 32, 32, 64)        0         \n","                                                                 \n"," dropout_18 (Dropout)        (None, 32, 32, 64)        0         \n","                                                                 \n"," conv2d_36 (Conv2D)          (None, 16, 16, 128)       73856     \n","                                                                 \n"," leaky_re_lu_51 (LeakyReLU)  (None, 16, 16, 128)       0         \n","                                                                 \n"," dropout_19 (Dropout)        (None, 16, 16, 128)       0         \n","                                                                 \n"," conv2d_37 (Conv2D)          (None, 8, 8, 128)         147584    \n","                                                                 \n"," leaky_re_lu_52 (LeakyReLU)  (None, 8, 8, 128)         0         \n","                                                                 \n"," dropout_20 (Dropout)        (None, 8, 8, 128)         0         \n","                                                                 \n"," conv2d_38 (Conv2D)          (None, 4, 4, 256)         295168    \n","                                                                 \n"," leaky_re_lu_53 (LeakyReLU)  (None, 4, 4, 256)         0         \n","                                                                 \n"," dropout_21 (Dropout)        (None, 4, 4, 256)         0         \n","                                                                 \n"," flatten_5 (Flatten)         (None, 4096)              0         \n","                                                                 \n"," dense_15 (Dense)            (None, 1)                 4097      \n","                                                                 \n","=================================================================\n","Total params: 522,497\n","Trainable params: 522,497\n","Non-trainable params: 0\n","_________________________________________________________________\n"]}]},{"cell_type":"code","source":["decision = discriminator(generated_image, training=False)"],"
…
